LWAMCNET.tflite (tflite, 305644 bytes, 20 tensors)

model/tf.nn.relu/Relu;model/batch_normalization/FusedBatchNormV3;model/conv2d/BiasAdd/ReadVariableOp;model/conv2d/BiasAdd;model/conv2d_8/Conv2D;model/conv2d/Conv2D f4 [32]
00000000: e800 23be 4010 a9bd d0f8 50bd c084 77bd
00000010: 6610 4bbe 5430 9fbe 78e2 f7bd 54a8 acbd
00000020: 502d f8bd 30b7 04be 44cf dfbd c98b 8bbd
00000030: 3279 1abe c0cf 93bd f8e6 f2bd 1498 23be
00000040: cc72 b2bd dbe5 4abe fd1b 0fbe 5053 20be
00000050: 0c99 80be c8d1 1bbe 32ce 11be 1438 14be
00000060: 2d9d ccbd 4c90 0ebe 500d 03be 59c1 26be
00000070: a6ab 55be 8934 8dbe e0a5 a5bd 00d3 acbe
-0.15918314 -0.082550526 -0.051018536 -0.060429335 -0.19830474 -0.3109156 -0.12103742 -0.084305435
-0.12118018 -0.12960505 -0.10928205 -0.06813771 -0.15085295 -0.072173595 -0.1186046 -0.15975982
-0.08713302 -0.19814245 -0.1397552 -0.15656781 -0.25116765 -0.15216744 -0.14238814 -0.14474517
-0.099909164 -0.13922232 -0.12798047 -0.16284694 -0.2086626 -0.27579144 -0.08088279 -0.3375473

model/tf.nn.relu_1/Relu;model/batch_normalization_1/FusedBatchNormV3;model/conv2d_1/BiasAdd/ReadVariableOp;model/conv2d_1/BiasAdd;model/conv2d_8/Conv2D;model/conv2d_1/Conv2D f4 [32]
00000000: 956f 393f c0eb 8c3e 856f a83d 740a 7b3e
00000010: 63cf 493e 4a54 643e 8e9c 333e 2723 c73e
00000020: 05e8 823e 60b2 673e 1121 223e 2eee 533e
00000030: df4d ad3e 4300 ef3e 284d f43b d04f ce3e
00000040: 75b2 e83e c9e3 693e 7020 2e3c 8563 633f
00000050: 9639 8e3e 6a3d 613e c4df 90be 32f7 0f3e
00000060: 1f3a 803e 78a4 583f caf1 9a3e 9234 603e
00000070: 2105 ad3d f59f b33e 306d 4b3c b7a2 7e3e
0.72435886 0.27523613 0.08224396 0.24515706 0.19708018 0.22297779 0.1754019 0.38894007
0.25567642 0.22626638 0.15832926 0.20696327 0.33848473 0.46679887 0.007455487 0.40295267
0.45448652 0.228408 0.010627851 0.8882373 0.2777831 0.21996084 -0.2829572 0.14059141
0.25044343 0.8462596 0.30262595 0.21895054 0.08448244 0.35082975 0.012416169 0.24866758

model/batch_normalization_2/FusedBatchNormV3;model/conv2d_2/BiasAdd/ReadVariableOp;model/conv2d_2/BiasAdd f4 [32]
00000000: 72b2 de3e ac42 393f 3c2d fdbf 0d29 943f
00000010: 1217 d33c 3a9e aa3f ca7a 583f e078 6f3e
00000020: 06e9 653f a2e0 8a3f a4f7 84bf 42db 85be
00000030: ec3c 233f c212 d3bd 020b 843f 19da b33d
00000040: 6ed4 273f 28f4 6fbf 7ad6 903e 3197 153f
00000050: e04f e43d d9c4 cc3f 37d4 8d3f 5721 2a3f
00000060: d197 a33e b78d 853f 97e4 a13f df3a 833d
00000070: cfd5 493f 149d e03e 8eb7 a83e 4bb5 113f
0.43495518 0.7236736 -1.977943 1.1575028 0.025767837 1.3329537 0.8456236 0.23385954
0.8980869 1.0849802 -1.0388074 -0.26143843 0.63764834 -0.10306312 1.0315859 0.08781833
0.65558517 -0.9373193 0.28288633 0.58433825 0.111480474 1.5997573 1.1080388 0.6645712
0.31951764 1.0433873 1.2647885 0.06407713 0.7884187 0.4386984 0.3295254 0.56917256

model/tf.nn.relu_3/Relu;model/batch_normalization_3/FusedBatchNormV3;model/conv2d_3/BiasAdd/ReadVariableOp;model/conv2d_3/BiasAdd;model/conv2d_8/Conv2D;model/conv2d_3/Conv2D f4 [32]
00000000: 6b5e 6e3e 1ec5 97be 4fe4 ae3e 79fe 3b3c
00000010: c585 0e40 f024 6c3d 6d4d 153e 1d30 e03d
00000020: 1cfe 80be 6dfa ae3e f7c9 883e eb67 54bf
00000030: 4d59 c03e 1406 1d3d 3ab4 513f daab df3e
00000040: 2dd8 293f 1835 713d efba 613f 6018 343f
00000050: fa9d 92bf 92f7 8b3e b82b 82be 5542 c83d
00000060: 6ee6 243f 0880 df3d 7c03 dcbe eff2 343f
00000070: cbba 0840 54fa 813f 1485 c03e e67b c63e
0.23278205 -0.29642576 0.3415856 0.011474245 2.2269146 0.057652414 0.14580317 0.10946677
-0.2519387 0.34175435 0.26716587 -0.82971066 0.3756813 0.038335875 0.8191563 0.436858
0.66345483 0.058888525 0.88175863 0.70349693 -1.1454461 0.2733732 -0.2542398 0.09778277
0.6441411 0.10913092 -0.42971408 0.7068319 2.136401 1.0154519 0.3760153 0.38766402

model/batch_normalization_4/FusedBatchNormV3;model/conv2d_4/BiasAdd/ReadVariableOp;model/conv2d_4/BiasAdd f4 [32]
00000000: 3c3d b1bf 688a adbf 0cc0 b53f 60a0 0cbe
00000010: 896f 48bf 45a7 48bf a7c2 bf3e ba69 0c3f
00000020: 79c1 6cbf 8c2c af3f 0090 313f ec19 b1bf
00000030: 3912 963f db94 ab3f fada 2ebf 88b1 fabe
00000040: de78 d43b c91b 563f 6a5b ca3f c296 1f3f
00000050: ce82 19bf ee4c 9fbd 4c65 8e3f 47e8 65be
00000060: d9ad 40bf c538 e63e 9a6f f93e 0e8e 6e3f
00000070: 40b5 30bf 2d4a fcbe 0760 993f 9722 04bf
-1.3846812 -1.3557863 1.4199233 -0.13733053 -0.7829519 -0.78380233 0.37453195 0.54848826
-0.92482716 1.368547 0.6936035 -1.3836036 1.1724311 1.3404802 -0.6830288 -0.4896357
0.006484135 0.83636147 1.5809147 0.62339413 -0.5996522 -0.07778345 1.1124663 -0.22451888
-0.7526527 0.44965187 0.48717958 0.9318551 -0.69026566 -0.49275342 1.198243 -0.5161528

model/tf.nn.relu_5/Relu;model/batch_normalization_5/FusedBatchNormV3;model/conv2d_5/BiasAdd/ReadVariableOp;model/conv2d_5/BiasAdd;model/conv2d_8/Conv2D;model/conv2d_5/Conv2D f4 [32]
00000000: 4506 6a3e d6ce 60be b1ae 153f 9642 32be
00000010: 5524 d23e 5b5d 463d 0e0a 81be 68ab 313e
00000020: ee27 4d3f b25e cb3e 1035 1abd be76 6c3f
00000030: 269d b8bf fdea e0bd f005 66be f023 a23d
00000040: 3f7f b33e dc5c babf 8478 d5bf aa8d d2bc
00000050: 23d7 dd3d f906 79be c956 2d3f 32dd 1fbd
00000060: b8c6 b6be 3474 7fbf e0a0 c4bd 818c 953e
00000070: a286 31be 8c5b 0ebd 32cf 4b3f 4545 82bf
0.22853954 -0.21953902 0.5846968 -0.17408213 0.41043344 0.048428874 -0.25202984 0.17350543
0.8013905 0.39720684 -0.03764826 0.92368686 -1.4422958 -0.109823205 -0.22463202 0.07917011
0.3505802 -1.4559588 -1.6677403 -0.025702316 0.1083205 -0.24319066 0.6771055 -0.039029308
-0.35698485 -0.99786687 -0.09600997 0.29208758 -0.17336515 -0.034755275 0.7961303 -1.0177389

model/batch_normalization_6/FusedBatchNormV3;model/conv2d_6/BiasAdd/ReadVariableOp;model/conv2d_6/BiasAdd f4 [32]
00000000: ad8d 973f 92a3 bc3e 7a2e 723e dd1e c13e
00000010: c613 c23e 9a4b 133e b596 0dbf 2a85 c13e
00000020: 8ff6 893f 97df da3d 061e 80bf 714e 45be
00000030: 0fdc 4ebe ede2 993f 07cc 863f 919c 763f
00000040: a668 873e 9540 983e d6b7 2d3e e070 e53e
00000050: c834 88bf e620 a3bd 140b b83f a5ee 4fbe
00000060: 174b 683f 8b91 403f 064d 463f c2bc 65bf
00000070: 9bea 0d3f ee54 923f 5adf debd 4fa4 613f
1.1840111 0.36843544 0.23650542 0.3771886 0.3790571 0.14384308 -0.55308086 0.3779691
1.0778369 0.10687178 -1.0009162 -0.19268204 -0.20201133 1.2022377 1.0531014 0.9633265
0.26447028 0.29736772 0.16964659 0.4481268 -1.0641108 -0.07965259 1.4378381 -0.2030588
0.9073958 0.7522208 0.7746128 -0.89741147 0.55436105 1.1432168 -0.10882445 0.8814134

model/tf.nn.relu_7/Relu;model/batch_normalization_7/FusedBatchNormV3;model/conv2d_7/BiasAdd/ReadVariableOp;model/conv2d_7/BiasAdd;model/conv2d_8/Conv2D;model/conv2d_7/Conv2D f4 [32]
00000000: abdd 4dbf c452 84bd 11e3 7d3e badd c0bf
00000010: 578e 95be dadc 73bf 906d 1abf 44e7 bfbf
00000020: d72f 573f cda5 82bd 58a4 f9be 6d86 ce3e
00000030: ebc5 4d3f fdd5 fd3e 3ff6 4f3c 112b 19bf
00000040: 5aa7 a13f 6921 c8bf 6177 e8bd 1b1a eabe
00000050: 439c d5bf 9b0c ef3e 6200 3fbf 54da e4bf
00000060: 7282 81bf f707 d1bf 61e5 393f cb38 f43d
00000070: feb0 edbe f6e9 13bf f28d 9f3f dd55 5a3f
-0.80416363 -0.06461099 0.2479365 -1.5067666 -0.2921016 -0.9525887 -0.6032343 -1.4992452
0.8405737 -0.0637928 -0.48758197 0.40336934 0.80380124 0.49577323 0.012692987 -0.5983134
1.2629197 -1.5635196 -0.11350895 -0.45723042 -1.6688312 0.46689305 -0.7460996 -1.7879128
-1.0117934 -1.6330556 0.7261563 0.11924895 -0.46424097 -0.5777887 1.2465193 0.85287267

model/batch_normalization_8/FusedBatchNormV3;model/conv2d_8/BiasAdd/ReadVariableOp;model/conv2d_8/BiasAdd f4 [32]
00000000: b0b0 02bf 4a78 87bf c088 b1bc 3851 12bf
00000010: b4ab 08bf c0f0 823c f86e 33bf bc2b 4cbf
00000020: 04bd f03e 50e7 dc3d b88f 5ebe 540e 67bf
00000030: 00f0 943c 0002 80bb 08ad d5be 100e ddbd
00000040: 367f 90bf 7c4c 80be c092 f1bc c981 83be
00000050: ecb1 6ebf 7982 87be 6469 b9be ad8b 05bf
00000060: e9a0 a3bf a4d6 09bf aa36 70bf 8ee0 dc3e
00000070: 4810 16bf 76ea 59be 0067 743d f04b dabe
-0.51050854 -1.0583584 -0.021671653 -0.5715518 -0.53387 0.01598394 -0.700912 -0.79754233
0.47019207 0.10786307 -0.21734512 -0.9025624 0.018180847 -0.0039064884 -0.41733575 -0.10793698
-1.1288822 -0.25058353 -0.029488921 -0.25684956 -0.9324024 -0.2646673 -0.3621322 -0.52166253
-1.2783481 -0.5384314 -0.9383341 0.43140072 -0.58618593 -0.21280846 0.05966854 -0.4263606

model/conv2d/Conv2D f4 [32, 3, 3, 1]
00000000: da32 0bbe bc2f 043e 8adb cf3d 64eb 5d3e
00000010: 25ac 79be afed 8abe 82dc 9eba 33dc 6dbe
00000020: 5400 e4be 19bc cbbe c8e8 d63f 590f 8fbe
00000030: 85f1 cf3e 0200 d3bf ea5c 643e e858 c9be
00000040: 6378 d43f a102 54be 423b 313e 78fd 94bb
00000050: 11f0 e53d c2de 31bf d1b2 1e3f 6b81 05bf
00000060: 2a14 9c3d d4db 88bd 46bd f93d 873e da3e
00000070: 9d14 38be c466 ea3d 1eae 743e 359a 273d
00000080: 2290 65bd c696 903e 2ca5 153e 7df2 2abd
00000090: b200 233e 7cd7 1c3e 7a4d ebbe 06be 923e
000000a0: 6af2 233e 38a7 14bf 30a9 09be bbff 27be
000000b0: 0fc6 e63e ab39 03bf 5c7f 0a3e 8d23 8a3d
000000c0: 0065 7e3f ab95 86bd 88a1 a2bd 4687 33be
000000d0: 1ed6 d83d 3d3c 9ebd d096 9dbc 9156 c63d
000000e0: 14ea 0c3e 6cd9 01bd a20b 253e 7339 913e
000000f0: fa81 17be 458e 2b3e b788 abbe 8549 80be
00000100: 5c08 02be 1fb3 0a3f 8097 44bd 2dd1 7f3d
00000110: 0485 2c3f 0e85 b63d ebda 72bd 066d 3bbf
00000120: f08a 5f3d 8305 e03c c788 b13d de42 213e
00000130: fe56 ce3b 52b1 163e 24b5 c63c cc26 d33d
00000140: 524c c03d 14eb 06bf a883 b7bd 4c01 bb3d
00000150: 3a49 6f3e 5bb6 d23e 095a 27be d7b8 b33d
00000160: d422 433e 962c 06be 40c5 263f 4fb8 b8bd
00000170: 40f7 39be ec3a 94be ac10 05bf 8c99 923e
00000180: eb43 123d e6a8 36bc b424 a1bb efc3 3f3c
00000190: 858a 243d 316e 4dbd bc31 643f 87e8 0fbf
000001a0: 9d9c 723e 6044 7a3c 3f1e cd3d 9da0 01be
000001b0: 23a7 a33d 88c7 ebbc 521b ab3a 0239 8a3f
000001c0: ed99 40be 5e0b 5cbe 0ee5 8ebf 835c 1a3e
000001d0: 3f6c 9c3e 46fd a1ba eb85 583e 56c1 b63c
000001e0: 8a6a 5ebf a40f 603d 7dd1 a2bd 0243 543f
000001f0: 00e6 20bd b78f 0a3e 3f94 debc 3ed1 283c
00000200: 2b86 f5bd c286 303e 1f94 84bf 93b8 323e
00000210: e9ca a93b 3325 88bd 1b33 bcbd cfae 28bf
00000220: 6518 8c3d e471 12bd 66ba 0cbf 43ec 433e
00000230: 2801 b6bd 724a a4be 023f 1b3f e99b 0c3e
00000240: 761d 1d3b fce5 1bbd a40e 993f 83c5 063d
00000250: 0311 ac3d eccf 9dbf 136e acbc 7ff0 e0ba
00000260: 5ab8 a73e 1ac8 2fbf 3791 a33f 750c d73c
00000270: 136f b53c 0be0 c3bd fc08 0cbe 6aec 1ebd
00000280: 088b 8dbe f0e7 a13f 1001 39be d72b f3be
00000290: 5f1a eebe 892c 423e 2f94 043f 1ccd c03e
000002a0: 4faa 1b3d df19 373e 25cd 6c3e 2269 4cbe
000002b0: 2c45 8a3e 53a3 083f cd03 303d 2b17 41bf
000002c0: 4d1a 583d 8105 f1bd 41c2 363e b885 78bd
000002d0: 23b3 263e 085d b0be 3409 90be ef99 7bbd
000002e0: 92d8 993c f341 ad3d 1c3c 3e3f 983d 95be
000002f0: 03b4 42bd 4402 8bbd e647 473d 95ab 1abd
00000300: e9af 4bbe e682 3dbf 4cec d53d 4c8d 263f
00000310: 59e0 743e 7ea5 08be 4083 fbbd 3919 1d3e
00000320: 6d65 75bd 2b47 0c3e 1f9e bfbe e7f3 713f
00000330: e17a 46be 30ee 123e 6612 11be 1a29 273f
00000340: 7ee4 173f 8e85 64bc a822 f6be f677 06bf
00000350: 8115 023d 6969 debe fa91 f1be 3d7a 803e
00000360: df42 173e 00df a1be a65e ba3d b0e5 663e
00000370: 5662 e1be 9f07 db3e e3ed 4f3e 70b9 dcbe
00000380: 34f0 9d3e 41b2 10be 16d6 10bf 02c2 c2bc
00000390: f3ac cebd 72d9 c23e 1b2c aa3e 4f4d f4bd
000003a0: 0769 b73e b2cc 913e f13b eabd 9c8f 023e
000003b0: 1873 1abf 8855 4abe 9d92 a73e 5549 2dbf
000003c0: c095 033e d0f1 3abd 0c61 713e 68cb ee3e
000003d0: e892 20be 88b2 5dbe 9f1b e03e 56dc aebc
000003e0: 4fe5 323e cd53 ba3d b33c c1be 9cb5 38be
000003f0: 014c c93d 8b29 8fbd 9795 15bd ddf2 a73e
-0.13593617 0.12908834 0.10149296 0.21671826 -0.24382074 -0.27134463 -0.001212016 -0.2322853
-0.445315 -0.39791945 1.6789789 -0.27941397 0.40613952 -1.6484377 0.22301069 -0.39325643
1.6599239 -0.20704128 0.17307761 -0.0045468174 0.1122743 -0.69480526 0.619916 -0.521506
0.076210335 -0.06682554 0.12194304 0.4262583 -0.17976613 0.11445382 0.23894545 0.040918548
-0.05604566 0.2824003 0.1461379 -0.04173516 0.15918234 0.15316576 -0.45957547 0.286606
0.16010442 -0.58067656 -0.13443446 -0.16406147 0.45072982 -0.5125987 0.13525146 0.06745062
0.99372864 -0.06571516 -0.07940966 -0.17532071 0.105877146 -0.07726333 -0.019236952 0.0968448
0.13761169 -0.03170149 0.16117719 0.28364143 -0.14795676 0.1675349 -0.33502743 -0.2505609
-0.12698501 0.5417957 -0.047996044 0.062455345 0.67390466 0.08912097 -0.059290808 -0.7321323
0.05457586 0.027346378 0.08668666 0.15748164 0.0062969914 0.1471608 0.024256296 0.10310134
0.09389557 -0.5270245 -0.08960658 0.09131107 0.23367777 0.4115475 -0.1634294 0.0877549
0.19056255 -0.13102946 0.6514473 -0.09019529 -0.18160725 -0.28951204 -0.51978564 0.28632772
0.035709303 -0.011148667 -0.0049177054 0.011704429 0.040171165 -0.050153915 0.8913839 -0.56214184
0.23692556 0.015275091 0.100155346 -0.12658925 0.07990863 -0.028781667 0.0013054407 1.0798647
-0.18808718 -0.21488711 -1.1163652 0.15074353 0.30551335 -0.0012358807 0.21144836 0.022308987
-0.86881316 0.054702416 -0.07950113 0.82914746 -0.039281845 0.13531385 -0.027170299 0.0103037935
-0.11988481 0.17238906 -1.0357703 0.17453222 0.0051816595 -0.0664772 -0.09189435 -0.65891737
0.068405904 -0.035753146 -0.5497192 0.19133095 -0.08886939 -0.32088047 0.6064302 0.1373135
0.002397386 -0.038061127 1.1957593 0.032903206 0.08401682 -1.2329078 -0.021048581 -0.0017161517
0.32757837 -0.68664706 1.2778691 0.026251057 0.02214769 -0.09564217 -0.13675302 -0.03879968
-0.27645135 1.2648907 -0.18066812 -0.47494385 -0.46504495 0.18962301 0.5178861 0.37656486
0.038004216 0.17880963 0.23125131 -0.1996198 0.270059 0.53374213 0.042972375 -0.75425977
0.052759457 -0.11768628 0.1784754 -0.0606744 0.16279273 -0.34445977 -0.2813202 -0.0614261
0.018780027 0.084598444 0.7431047 -0.29148555 -0.047534954 -0.067875415 0.048652552 -0.03776129
-0.19891323 -0.7402786 0.10445461 0.6505935 0.23913707 -0.1334438 -0.12280893 0.15341653
-0.05991118 0.13699023 -0.37425324 0.9451279 -0.19382812 0.14348674 -0.14167175 0.6529709
0.59333026 -0.013947858 -0.48073316 -0.52526796 0.03175879 -0.43439797 -0.47181684 0.2509326
0.14771603 -0.31615448 0.09100084 0.22548556 -0.44020337 0.42779252 0.2030559 -0.43110228
0.30847323 -0.14130498 -0.5657667 -0.02377415 -0.10091581 0.38056523 0.33236775 -0.11928808
0.35822317 0.28476483 -0.11437214 0.12750095 -0.6033187 -0.1975919 0.32729045 -0.6769002
0.12850094 -0.045640767 0.23572177 0.46639562 -0.1568104 -0.21650136 0.43771073 -0.021345299
0.17470287 0.09098015 -0.37741622 -0.18038028 0.0982895 -0.069903456 -0.036519613 0.32802477

model/conv2d_1/Conv2D f4 [32, 3, 3, 32]
00000000: 8d94 f2bc c7b3 b53b 124e d2bd e352 d6bb
00000010: 2cb2 80bd ad40 daba f6ce 7abc 5cac 3d3d
00000020: cce4 9bbd 1206 8d3c 45cb c7bb 4e91 0cbd
00000030: 27c9 dbbd f838 67bd be07 edbc 9aab 59bd
00000040: cac0 63bd 836f ffbc 7c19 50bd ba00 aabc
00000050: 1ab9 c3bc 65ed b5bb 28b5 96bd 858d ddbc
00000060: 870f 51bd 3ef8 823b 94ab c5bd 0654 e93c
00000070: 93d7 babc c2e7 98bc b2ff a2bb e273 96bc
00000080: 50e1 273c c2fd b33c fb78 39bd 3aba c9bb
00000090: 8243 a1bd 5238 143d 40bf 0bbd 1f3f 323c
000000a0: 4fa3 753c 6d95 28bc 286d c43b 6f4a 283c
000000b0: 89f1 093d 376c 4d3c fbc5 69bd 51cd e9bc
000000c0: 3da7 133d ab47 25bc 138b 323c 9e84 61bb
000000d0: eec4 073d 2010 943c ea2d eebc 7007 62bc
000000e0: 82a7 bd3b 26a8 6bbc 80a1 80bd 3b91 15bd
000000f0: 3750 373d 10a8 903c 45e7 13bd e73a aebc
00000100: aa44 7f3e 3c2a 4fbd f40e 05bd ca94 573b
00000110: d65c e83d 1d47 26bc 6243 a63d 3d76 053e
00000120: 2482 e03d 5055 743d 6e98 ce3c ce32 47bd
00000130: 2e46 c53d cc24 b53d da87 973c 3251 553c
00000140: d15a 463e 92fd 5e3e 3075 e93d d152 6a3d
00000150: 260f 31bb d5fa f23d 5431 f33d 723e 9d3d
00000160: 4e7e 8d3d 2631 6c3e b667 103e fd2a 1f3d
00000170: 587d c13d 2aa0 cf3b 3bf0 f13c 72fb 653c
00000180: 2699 09be 11d1 b9bd 9a75 36be acf8 aabd
00000190: 333d d0bd 552c d4bd 78bf 9fbd 7c21 cdbd
000001a0: d0cf 27be 4a84 81bc 358c 25bd dbf3 eebd
000001b0: 134e bebc 4781 a83c 3c70 96bd 46fc b4bd
000001c0: bc49 a9bd a785 1ebe 8932 afbd f0a6 fbbd
000001d0: 5c23 27be ee4e d3bc a59b 07be 31f3 eebd
000001e0: 935e 23be d0ee d7bd 858c 1bbe 74ca ccbd
000001f0: 4865 01be eb0f afbd e475 bbbd 5355 e6bb
00000200: 21cb 47bd 5ecb eabb a766 7e3b 406e dcbd
00000210: 4165 bbbc deca bbbc 6708 18bb ac36 733b
00000220: 4923 b23c a4c4 c3bd c815 2dbc 86d2 95bd
00000230: ae62 073c 8ade a53d 64b7 cebd 5b68 eabc
00000240: aa63 9dbd a2e1 a1bc 1ca1 80bd 2c5b 0a3c
00000250: e251 11bd 80dd 84ba 5818 903c b30f c2bd
00000260: ecc8 0e3c 9687 94bd d6ea c93d 29db 30bc
00000270: e5a2 823d 8ac2 4ebd 8340 5ebd 3178 85bc
00000280: 1ad6 543e 6746 053d 1145 003e b3a3 15be
00000290: c7fd 7d3e 945d 413b c27b 623e 4026 503e
000002a0: d443 c13d 6b99 443b c6f3 44bb 901b a8bd
000002b0: c6d4 123d 1a1a 26bd 327e cdbc 4315 273d
000002c0: 1c7c 4e3e 8773 d73d ea8e d03d d989 d43d
000002d0: 359d a33c c735 153d 50f4 3d3d 346f 223d
000002e0: eabd 023e d129 3e3e c06f 8a3e da99 8a3c
000002f0: 1a63 743d 6f6b 1f3e 020f 05bd df0f 653d
00000300: f8e0 91bd 8538 0abd 8edd 21be 6a40 1fbe
00000310: 97c8 9cbd 9109 81bc 3e74 79be f546 febd
00000320: 0418 7abe fd40 c4bd 98c8 ecbd 3f0c 0abe
00000330: be1b 8fbd 4d6a 46be c16a cebd c436 6abe
00000340: f0fc 06be 04a9 f0bd d7cd 09bc 4cd8 abbd
00000350: 847a e4bd 0524 ffbd f70a 04be c825 45bd
00000360: f137 56be 80eb b9bd 34b1 57be 1bcb 1cbe
00000370: cd18 4cbe 5073 18be 1152 d8bd 1f72 6ebd
00000380: 7c51 d8bc 30a1 abbd b23b 223d 5c46 04be
00000390: 3400 b3bc 12c8 9ebd 99ca d73c eaa6 883d
000003a0: a1d3 efbc e2e1 01be fda8 d1bd a67c 96bd
000003b0: 5738 9dbd bb79 7fbd 2493 a5bd 342e 0bbe
000003c0: c74e 613d 9a15 36be bc16 8cbc 8dc1 03bd
000003d0: 2095 91bd 6765 17be 9228 463d cade 9abd
000003e0: b218 0c3c 35c5 91bd b88f 3a3d e1df 00be
000003f0: 51b4 2d3d fabc 003b c213 12be d4bc 0fbe
-0.02961185 0.005545113 -0.10268797 -0.0065406426 -0.062839836 -0.0016651355 -0.015308132 0.046306953
-0.07611999 0.017214809 -0.0060972297 -0.03431826 -0.10731726 -0.056450814 -0.028934356 -0.053142168
-0.05560378 -0.031181103 -0.050805554 -0.0207523 -0.023891974 -0.0055519813 -0.073587716 -0.02704502
-0.0510402 0.003996878 -0.096518666 0.028482448 -0.022807872 -0.018665198 -0.004974329 -0.018365804
0.01024659 0.021971587 -0.04528139 -0.006156233 -0.07874204 0.036186524 -0.034117937 0.010879307
0.014992549 -0.010289532 0.0059944578 0.010271653 0.03367761 0.012538007 -0.057073575 -0.028540285
0.036048163 -0.010087888 0.010897416 -0.0034411321 0.03314679 0.018074095 -0.029074628 -0.013795719
0.0057877908 -0.014383351 -0.06280804 -0.036515456 0.044754233 0.017658263 -0.036109228 -0.021268321
0.24928537 -0.050577387 -0.032484964 0.0032895082 0.11345832 -0.010148791 0.08118321 0.13033386
0.10962322 0.059651673 0.025219169 -0.048632436 0.09632526 0.08844909 0.018497396 0.013019847
0.19370581 0.21776417 0.11399305 0.057207886 -0.0027017086 0.11864249 0.11874643 0.07677926
0.06908856 0.23065624 0.14102063 0.038859356 0.094477355 0.0063362317 0.029533496 0.014037
-0.13437328 -0.090730794 -0.17818299 -0.08348212 -0.10167923 -0.10360018 -0.07800192 -0.10016152
-0.16387868 -0.01581015 -0.040416915 -0.116676055 -0.023230588 0.020569457 -0.07345626 -0.0883718
-0.08266017 -0.15480672 -0.08554561 -0.122877 -0.16322082 -0.025794473 -0.13242967 -0.11667479
-0.15954046 -0.10543597 -0.15190323 -0.09999552 -0.12636292 -0.08547958 -0.09153345 -0.0070292144
-0.048777703 -0.0071653565 0.003881851 -0.10763216 -0.02287543 -0.022923883 -0.0023198368 0.0037111444
0.02174534 -0.095589906 -0.010564275 -0.07315545 0.008263273 0.080990866 -0.10093573 -0.028614214
-0.07685025 -0.01976091 -0.06280729 0.008444589 -0.03547848 -0.0010136813 0.017589733 -0.09475651
0.008714896 -0.072524235 0.098592445 -0.010794439 0.06378726 -0.050478496 -0.054260742 -0.016292663
0.20784798 0.032537844 0.12526347 -0.14613228 0.2480384 0.002950524 0.22117522 0.20327091
0.09436765 0.002999867 -0.0030052527 -0.08208382 0.035847448 -0.040552236 -0.025084589 0.04079176
0.20164531 0.10520082 0.10183509 0.10377855 0.019972423 0.03642824 0.046375573 0.039656833
0.12767759 0.18570639 0.27038383 0.016919065 0.059664823 0.15568326 -0.032485016 0.05592334
-0.071229875 -0.033745307 -0.15807173 -0.15551916 -0.07655447 -0.015751632 -0.24360749 -0.12415878
-0.24423224 -0.09582708 -0.11561698 -0.13481234 -0.06987713 -0.19376488 -0.100789554 -0.22872454
-0.13182425 -0.11750987 -0.008410892 -0.08390865 -0.111561805 -0.12458042 -0.12894808 -0.048131734
-0.20919777 -0.09078121 -0.21063691 -0.15311854 -0.19931336 -0.14887738 -0.10562528 -0.058214303
-0.026406042 -0.083803535 0.03960771 -0.12917465 -0.021850683 -0.07753004 0.026341723 0.06672461
-0.029275717 -0.12683824 -0.1023731 -0.073479936 -0.076767616 -0.06237195 -0.080847055 -0.13591844
0.05500677 -0.17781678 -0.017100684 -0.032167006 -0.071085215 -0.14784776 0.048378535 -0.07562025
0.00855081 -0.071176924 0.045547217 -0.12585403 0.04240829 0.0019643889 -0.1426535 -0.14036876

model/conv2d_2/Conv2D f4 [32, 3, 3, 32]
00000000: 2d84 713e cd46 513e 7c46 e33c c0bb 5dbd
00000010: 23d1 9fbc 5ec9 ac3d 817d c93e c3fc 303e
00000020: 72eb 66bd 55a5 56be cfaf b33d 7c83 ab3d
00000030: 7241 ae3d 9ead 83be f7fd 1ebf d3d6 62be
00000040: 5155 5f3e e6ba 933e 4ebe 2abe 6de1 213d
00000050: 3521 9a3d 643a 363d a7ed b9bd cc2d 833e
00000060: 19ec 83be 5578 d33c 6dde 84be 4965 b3be
00000070: ec78 57bd 5aa5 80bd 47ee 4cbe c702 943e
00000080: 3885 283d 617e 7e3e 79d8 ee3d d6d3 33be
00000090: 7c65 483e 74cd 5b3e 9f8a 623e d77b 05be
000000a0: 0299 73be 7f92 99bd e248 b13b 3633 00be
000000b0: b55a eb3d 4b52 aabe aadb 10bf 95ca dcbe
000000c0: 40be 393c 51c5 4c3e dcba d33d 9354 9fbd
000000d0: 5a27 e93d 47f9 2bbd c16b 5ebd 8b18 003f
000000e0: 0597 a3bd 75df 6b3d 3e36 aabe a43b 1cbd
000000f0: 3480 5cbe 9397 803d 487c 1abe 3c22 9d3e
00000100: 8888 303d b750 c23d fc1b efbd a0aa afbe
00000110: 5b3f 4d3e a81b 6b3e aa49 c8bd 4b7e 2bbd
00000120: b0ee 223e 75dd 84bd cb25 d2be 6253 1dbe
00000130: 773d 4b3e 3f8f 1ebc abeb fcbd 1fa4 02bb
00000140: 106e e63d d194 e03d 0a8e c73d 66cc 1b3d
00000150: da82 de3e 6f94 a1be 1caa 39be f309 843e
00000160: 6d6c 8dbe e6d9 f63d a861 febc 0c1b 48bd
00000170: 7921 58bd 55f1 423e 6abe 46be a66f 463e
00000180: 1e02 f63d 637a 28bd 6584 203e 2d10 e23d
00000190: e716 8dbc c5d3 41bd 16fc 093d d57d 55bd
000001a0: 7345 a0bc 9c1a 84be 685a 09bd b155 81bd
000001b0: d425 d9be 4a74 123f cb4e 823e cf52 5d3d
000001c0: e2a6 e4bd f116 4fbd c983 42bf 1be4 973e
000001d0: 528a c8bd e49b 18bd a326 17bd a560 f8be
000001e0: fc4b 4abe 16e4 943d 0172 eebb c6ea c6be
000001f0: 9977 2dbe a608 81be 765b 4abe 42c5 7ebe
00000200: ef7e a4bd 279d b03e 61b8 ce3e 977e 213e
00000210: 459e 833e 7f1c d4bd e12c ccbe e695 003e
00000220: d2db 733e 9fa2 8bbe 4c53 f23c d574 603e
00000230: f694 07be a263 ba3e 010d 923c d44a 8cbd
00000240: c0e2 cebd 2b7f ab3d b472 16bf f868 6e3e
00000250: a226 27be 24af 1c3d 6289 02be 67ba 22bf
00000260: 30b3 083d e639 313e faa1 b0bb 5d6d bdbe
00000270: b0b2 013d aa5a 4abc f961 49bd 3dd3 f3be
00000280: d6c2 74bd 006e e5bc 9ac8 b63e 9b3f c3bd
00000290: 72a9 c23d a6bb 12be ef69 51be 9ba6 4f3e
000002a0: f72d 6e3e d58f 85be b451 b7bd 65fc ce3d
000002b0: 98c3 803e e305 073e c6b7 333e 3209 333e
000002c0: 7375 e2bd baee b33e 9350 b9be 4426 793e
000002d0: 9d63 4abe f551 b03e 3aa5 a23e d3ba f6be
000002e0: 3f7a 3abe 2e4c 063e e51f b63d 1a38 833d
000002f0: 9f19 973a f17e 123e c2c2 9f3d 6984 5ebe
00000300: 2fa9 a33c 060e cd3c 1624 5ebe a87b ad3d
00000310: 288d 643e e04e edbd d4ce 0c3d bf71 b3be
00000320: 68fe 74be 61ff 63be efb7 8bbe e8ae 2cbe
00000330: b5ad 91be 09fa 4a3e c40d d5bd 71c1 0bbc
00000340: a9b2 bdbe 8983 babe 5895 623c 91a7 d2be
00000350: c5f0 d63d 26a8 493e e1ee aabd 7a85 b63e
00000360: a29c 8cbe 6c4b 46bd 2d5d c7bb c447 7b3e
00000370: 2778 27be f1d1 82be a84c b0bc c7af 5fbe
00000380: 85e1 5e3e 95a8 45be 5f20 b0bd 1e0a 80be
00000390: 0f07 c4bc 41d1 7b3e 21c4 093e a4f2 0a3c
000003a0: 2102 62be 0168 23be 9281 8ebe 4bb5 aabe
000003b0: 78e3 f9bc 22e4 c5bd 0275 3f3e f08c 7fbe
000003c0: edfd 06be 9d27 ba3d e7a5 c9bd 2cae 87be
000003d0: 06b8 cbbd 1059 13be fd74 dbbc 9bc6 2e3e
000003e0: 3bf0 84bc 448d 99bd 6294 c2bc bca0 51bd
000003f0: 0dd3 e5bd 5a7d bbbe 2c2a b4bd c4c7 793d
0.23585577 0.20437165 0.02774357 -0.05413413 -0.019508904 0.08436845 0.39353564 0.17283921
-0.056376882 -0.20961507 0.08773767 0.08374688 0.085085765 -0.25718397 -0.6210627 -0.22152261
0.2180989 0.2885353 -0.16674158 0.039521623 0.07525865 0.04448928 -0.09078532 0.25620878
-0.25766066 0.025814215 -0.25950947 -0.35038212 -0.052605554 -0.06281538 -0.2001277 0.2890837
0.041142672 0.24852897 0.11662383 -0.17561278 0.19569963 0.21465093 0.22123192 -0.13035522
-0.23788837 -0.07498645 0.0054102996 -0.12519535 0.1149191 -0.3326591 -0.5658518 -0.43123308
0.011336863 0.19997145 0.10338375 -0.07779803 0.11384459 -0.041985776 -0.05430198 0.5003745
-0.07987789 0.057586152 -0.33244509 -0.038142815 -0.2153328 0.062789105 -0.15086472 0.3069018
0.043098956 0.094880514 -0.116752595 -0.34309864 0.200437 0.22959769 -0.09779675 -0.04186849
0.15911365 -0.06487552 -0.4104446 -0.1536384 0.19847666 -0.009677707 -0.123496376 -0.001993425
0.112514615 0.109658845 0.09743889 0.038036726 0.43459207 -0.31558558 -0.18131298 0.2578884
-0.27621785 0.120532796 -0.031052426 -0.04885392 -0.052766297 0.19037373 -0.19408575 0.19378528
0.120121226 -0.041132342 0.15675505 0.110382415 -0.017222835 -0.0473211 0.033687674 -0.052121956
-0.019564366 -0.2580155 -0.033533484 -0.063151725 -0.42411673 0.57208693 0.2545074 0.05403405
-0.11164643 -0.050558988 -0.7598234 0.29666218 -0.097920075 -0.037258044 -0.03690208 -0.48511234
-0.19755548 0.072700664 -0.007276774 -0.38850993 -0.16940154 -0.2520191 -0.19761452 -0.24879935
-0.08032023 0.34494898 0.40375045 0.15770946 0.25706688 -0.10356998 -0.3987799 0.12557182
0.23814324 -0.27272508 0.029580735 0.21919568 -0.13240418 0.3640414 0.017828466 -0.0685021
-0.10101843 0.08373865 -0.58768773 0.2328223 -0.16323331 0.038252965 -0.1274772 -0.6356568
0.03337401 0.17307243 -0.005390403 -0.369975 0.03166455 -0.012350718 -0.0491657 -0.476221
-0.059756123 -0.028006554 0.35699922 -0.09533616 0.095049754 -0.14329395 -0.20450567 0.20278399
0.23259722 -0.26086298 -0.089511305 0.10106734 0.25149226 0.1318584 0.17550573 0.17483976
-0.11057558 0.3514307 -0.36194286 0.24331003 -0.19764562 0.34437528 0.31766683 -0.4818941
-0.18210696 0.13114998 0.08892802 0.06407185 0.0011528021 0.14306237 0.07800819 -0.21730198
0.019978134 0.025031101 -0.21693453 0.08470851 0.22319472 -0.1158731 0.034376934 -0.3504772
-0.23925173 -0.22265388 -0.27288768 -0.16863596 -0.2845284 0.19821943 -0.10403016 -0.008530007
-0.3705037 -0.36428478 0.013829552 -0.41143468 0.10495142 0.1969305 -0.08346344 0.3564871
-0.2746325 -0.04841177 -0.0060841055 0.24539095 -0.16354428 -0.25550798 -0.021520928 -0.21844397
0.21765716 -0.1930259 -0.08599924 -0.2500772 -0.023929147 0.24591543 0.13453723 0.008480702
-0.22071125 -0.15957643 -0.2783323 -0.3334144 -0.030503973 -0.096626535 0.18696979 -0.24956107
-0.13182802 0.09089587 -0.098460965 -0.2650007 -0.09947209 -0.14389443 -0.026789183 0.1706795
-0.016227832 -0.074976474 -0.023752395 -0.05117868 -0.11221895 -0.36619073 -0.08797106 0.060981527

model/conv2d_3/Conv2D f4 [32, 3, 3, 32]
00000000: 76b1 923d a303 6c3c f8f8 edbd d93a 653c
00000010: 7ff3 9d3d 8c94 0bbd c3f8 07be d9cc 693c
00000020: 7569 e13c 14c4 8cbd 7785 0ebe aa9a 8cbd
00000030: c759 f8bc 7ea8 acbc 6367 2dbc 9a4f 9f3c
00000040: 61bf 1dbd d4c4 b53c ad48 c63c 8e76 c73b
00000050: 4668 18bd 8890 78bd d617 993d ff93 cf3c
00000060: e3e1 2b3d 3b47 a23c 5d9c dabd 0670 00bd
00000070: bb7f 15be 18cc c63d 9f38 55bd 53d7 cd3c
00000080: f71b 18bd 59c5 a83c 9a63 d5bd 2188 ab3b
00000090: 1710 05bc c1b6 c3bd 04ec 813d 781e cfbd
000000a0: 6508 363c acb8 f53c 846a ffbd 00f9 a3bd
000000b0: e6d0 55bd 7e19 a9bc b0d3 a83d f1c6 303d
000000c0: c3a6 ffbd d18f 0ebd 64b8 6e3d b6a2 4fbc
000000d0: 2c68 09be 7725 9ebd c04c 393d 93ff a83c
000000e0: 3bc8 2c3d de6f 2dbd cc2d d9bd b9e7 92bd
000000f0: abb9 843d 028c 003d bc37 09be a724 2fbc
00000100: 0e60 8cbd a064 7cbc a273 0fbe a372 083d
00000110: 4be9 37bd d4f5 f8bb 2b9a a83c 388d 8ebd
00000120: cf17 08bd c8d4 003e fef3 03be 6c19 03be
00000130: ab07 143d 9341 0a3b 4842 343e c2e3 b03c
00000140: 2f9f 6bbe 86e8 cdbd ea10 8c3d a185 653d
00000150: db06 f2bd 7627 f33c c0ad 7ebd 7805 b83d
00000160: 48f8 c13c a11f 923d 5a93 15bd 318a 94bd
00000170: 37cf aa3d 7281 f9ba 1399 723c 900f e93d
00000180: 4065 f73b 006c 2f3d c5fc c1bd 52fe a0bd
00000190: f204 87bd 42a5 1fbd 285d 57bd 4a10 213d
000001a0: 5a69 00bd 9423 5fbc 8723 36bd 2e7f b53c
000001b0: 1519 dfbb b83b c6bc 1473 53bd e996 0d3d
000001c0: 0f71 a9bc bd78 ae3c 8642 61bd 17fc 05be
000001d0: 0fc9 85bd 05ca 35bd dad6 943d e126 5cbd
000001e0: fa6d 1dbd c6d5 933c 7ef1 7ebd 41e3 0fbd
000001f0: 56c7 80bb 0077 86bd a848 5a3d ba0d 6cbd
00000200: f767 223d 8325 453d d29f 9cbd bb39 9ebd
00000210: b6ba 063c 9257 32bd d793 0f3d 345c a5bd
00000220: a809 893d 0200 503c 0080 90bd c5ae 0abc
00000230: 92f5 8fbb b673 693a 1f79 28bc 2a42 043c
00000240: 38d1 0fbd 8f7d 03bc b78a 493d 02f5 9a3b
00000250: 45fc 273c 5cb1 5fbd e2da 23bd 0ab3 a53b
00000260: b54c 7d3c bf69 c83b cab0 d6bc bb6c 3cbc
00000270: 9954 2c3c 8f4a 733d a0b5 07be b174 bdbd
00000280: 7c1d e0bc 7915 ebba 3ed4 8fbd 7ce7 9a3d
00000290: fd83 a2bb 7102 1f3d 74ca 02bd d3d6 d2bd
000002a0: 54b4 d73c 97ea 923c 0cf7 a8bc 3f91 02bd
000002b0: cbaa adbd 7402 3dbd 6887 453e eb62 e03c
000002c0: b9d5 863a f869 0c3a 65d6 2c3e 0bca 063e
000002d0: 04b7 123d b330 a43d 951c 26bd dee9 893d
000002e0: eaaf 75bd ffdc c13b 8ca0 cc3c 2161 043d
000002f0: e4d9 35bd a43d d03d ee1e 22bb e9d3 093e
00000300: a993 83bd d283 bdba 11cb 4bbd 899a 7abc
00000310: fbba 893c f023 bbbd 26f7 a9bd 2455 3abd
00000320: afad 98bc 4c6e 1c3d e235 2fbd e4af d63a
00000330: 9c7a fd3c 470b 58bd 27af f2bd 0722 233c
00000340: 47ce 793c 654d dd3a 9da3 2b3d 87f9 73bb
00000350: 8fb0 ca3b e4ec 093d 4d1f 513c a071 4ebb
00000360: fa10 0ebd 5d8f 3d3d 2ae2 07bc ca64 27bc
00000370: 34d3 8d3d c666 d4bd 3fde b0bb 7e95 40bd
00000380: aeb0 8dbd 9132 8d3c 0887 82bd 72f8 8cbb
00000390: 3788 623c 1aff 3c3d ea12 9e3d a40f 363c
000003a0: addc 683d e35a 99bc 73e4 8f3c a6df 333c
000003b0: ac6b bfbd 05c9 863c 9cf1 03be dc98 ba3c
000003c0: a6cd 1fbd 5a67 94bd 15ee aebd d16d 9bbd
000003d0: 115b ecbc ab57 f2bc 2d6d 853d 4820 54bb
000003e0: 121a b03c 942f 17be 39a5 633b ed97 a8bb
000003f0: 01fa 0a3c f323 bd3d 7eb9 0b3d 93a4 abbd
0.07162754 0.014405164 -0.11619753 0.013991081 0.07712459 -0.034077212 -0.13278489 0.014270031
0.027516106 -0.068733364 -0.139181 -0.06865437 -0.030316247 -0.021076437 -0.010583731 0.019447137
-0.03851259 0.022188582 0.024204576 0.006087131 -0.037208818 -0.06068471 0.074752495 0.025339125
0.04196347 0.019809356 -0.10674355 -0.031356834 -0.14599507 0.097068965 -0.05205595 0.025127089
-0.037136044 0.020601915 -0.10419388 0.0052347337 -0.008121512 -0.09556342 0.063438445 -0.10113233
0.0111104 0.029995285 -0.12471488 -0.08006477 -0.052201174 -0.020642038 0.08243501 0.043158475
-0.12482979 -0.034805123 0.058281317 -0.012673071 -0.13418645 -0.077219896 0.04523921 0.02062968
0.042183142 -0.042343013 -0.10604438 -0.07173104 0.06480726 0.03138352 -0.13400167 -0.010689891
-0.068542585 -0.01540485 -0.14008954 0.03331245 -0.04490022 -0.0075976644 0.020581326 -0.06960529
-0.03322583 0.1258117 -0.12886044 -0.12802666 0.036140125 0.0021096214 0.1760341 0.021592978
-0.23009942 -0.10054116 0.068391636 0.05603564 -0.11817714 0.029681902 -0.06217742 0.08985418
0.02367796 0.07134939 -0.03651748 -0.072529204 0.08340304 -0.001903577 0.014807004 0.113799214
0.0075499117 0.042827606 -0.0947204 -0.07861008 -0.0659274 -0.03897596 -0.052579075 0.039322175
-0.03135047 -0.013619322 -0.044467475 0.02215537 -0.00680841 -0.024198398 -0.05162342 0.034567747
-0.020683793 0.021297807 -0.054995082 -0.13084446 -0.065324895 -0.044382114 0.07267542 -0.053748015
-0.03843496 0.018046271 -0.062242024 -0.035128836 -0.0039300127 -0.06565666 0.053291947 -0.05763028
0.03964993 0.048131477 -0.07647671 -0.07725855 0.008223226 -0.043540545 0.0350531 -0.08074227
0.06691295 0.012695314 -0.07055664 -0.00846452 -0.004393288 0.0008905487 -0.010282784 0.008072415
-0.035111636 -0.008025541 0.049204554 0.0047289142 0.010253017 -0.054612502 -0.040003665 0.0050567435
0.015460183 0.0061161215 -0.026207346 -0.011500533 0.0105182165 0.059397276 -0.13252878 -0.09250773
-0.02735781 -0.0017935476 -0.07022904 0.075636834 -0.004959582 0.038820688 -0.031931356 -0.10294881
0.026331104 0.017934127 -0.020625614 -0.0318768 -0.08479842 -0.046144918 0.19289935 0.027390918
0.0010287083 0.0005356367 0.1687866 0.13163011 0.03581907 0.08017101 -0.0405546 0.0673406
-0.059982218 0.0059162374 0.024978898 0.03231919 -0.04439725 0.10168007 -0.0024737674 0.13459744
-0.06424648 -0.0014458841 -0.049754206 -0.015295633 0.016812792 -0.09137714 -0.08299093 -0.045491353
-0.018637506 0.038191125 -0.042775996 0.0016379324 0.030942254 -0.05274513 -0.11849814 0.009956843
0.015246934 0.0016884027 0.04190408 -0.0037227587 0.006185598 0.033673182 0.01276381 -0.0031500831
-0.03468416 0.0462793 -0.008293668 -0.010216901 0.069250494 -0.10371165 -0.0053975875 -0.047017567
-0.069184646 0.017236026 -0.063734114 -0.004302078 0.013826421 0.04614172 0.07718451 0.011112127
0.056851078 -0.018720096 0.017564988 0.010978615 -0.09346709 0.016453275 -0.12885135 0.022777967
-0.03901448 -0.07246275 -0.08541504 -0.07589305 -0.028852018 -0.029582819 0.06514964 -0.0032367874
0.021496806 -0.14764243 0.0034735932 -0.005145064 0.008482457 0.092353724 0.034112446 -0.083809994

model/conv2d_4/Conv2D f4 [32, 3, 3, 32]
00000000: 0811 213e 065b d2bd c360 a13d 5852 113d
00000010: 6c58 bd3c 0163 433e 2d33 38be 2cf8 d13d
00000020: f497 0c3e 9bff bd3d dc25 9f3e ffb4 2f3d
00000030: 1964 8cbd 582d 953e d261 60bd 0103 3d3c
00000040: 4e70 fabb b876 db3d c6c8 563e 3dce a93c
00000050: bfc8 33bb 9017 bb3d 3b61 3d3e 16e5 7b3d
00000060: 0845 d23a 1840 453e 7dfc bc3d 4926 08be
00000070: 7576 9a3d 1206 a73c 1df7 d9bc 9c3a dbbc
00000080: 0ea4 f93d 0758 97bd eb5d 1ebc 4464 793d
00000090: 09fc 9cbc 31ec 3a3e f6a5 e8bd fdc5 d73d
000000a0: 848e 043e d277 413d 8f84 973e b9ec 033d
000000b0: d090 d9bc 18aa 573e f495 bbbd 2b00 4e3d
000000c0: e0ba babb 0ab2 5f3d 424a 593e f25d f03b
000000d0: e7ba 933c 7fc3 813c 1c08 5e3e 75e3 c33d
000000e0: 7412 1fbb 97ea 3c3e f0e3 bb3c 4016 98bd
000000f0: d567 d83c 2f5d 163d 7f79 193d 46d4 03bd
00000100: 64c3 233e 6362 d5bd 4f16 87bc d07b 063e
00000110: 9199 0ebb 3054 b83d f760 75bd dd7d cb3d
00000120: ee28 db3d 1b3e 8e3c 8206 b83e c12c 8c3d
00000130: bec8 523d fb41 883e 86b0 2ebe d896 013c
00000140: ad6a 38bd 28f9 46bd ed4d fc3d f85d 85bc
00000150: 447c 4e3c a4f6 c5bd a3d2 e63e 0c8d 533e
00000160: fcb7 953d b275 463e 77eb 61bd cc2a 5ebd
00000170: 9ea9 c8bc 4f14 f93b 90ef ee3d 5890 26bb
00000180: f78b d93d 727f 343e b52f 7e3d 0e7e 84bd
00000190: cfcf e33d 9b6d d83d 814f a33d 48d2 50bc
000001a0: 232a f13d e85c f53c bd18 353d 365c a93b
000001b0: e59e 95bc 9499 dc3c d148 b03e d2d8 323e
000001c0: e8e3 00bc b9e1 863d 9488 16bd 6293 133c
000001d0: 5c92 e1bb f911 b03d d8ad 0ebd 6cce c0bd
000001e0: 5356 6fbd ff17 b43b 9ccd 91bd e177 013e
000001f0: 2058 bc3b 7e07 dbbb c892 c0bd afa4 da3c
00000200: 4195 ed3d 64af 313e 7055 edbb 3069 1bbd
00000210: c41c 693d 5549 473e 6886 103e 6050 083d
00000220: 959d 083e d8fe a73d 907c be3d 2e83 11be
00000230: 48b2 5c3d ebe8 043c 8277 a33e 6aaf 263e
00000240: 4e9c 903d 250b 513c ccc5 c9bd 8798 cb3c
00000250: 41c3 90bc 4eb5 1e3d 695f 953c 094d c2bd
00000260: 33ef 46bd 291f 00bd a66c c0bd 92e9 c33d
00000270: 0350 f53b bba1 173b 7016 ccbd aa10 a139
00000280: 3a2a 843e 87c0 073e 47b0 223d 3f39 16bd
00000290: 2d0d e1bb 9058 573e d4ee 153e 5db5 eb3b
000002a0: 24f8 1b3e 1cb3 5e3d a516 253e 3b92 7ebd
000002b0: bc08 123e 6292 a7bd d95c af3e e8ba 9fbc
000002c0: 0754 073e a9e3 13be d994 96be a4e0 61bc
000002d0: a8a4 613d efda 893d be6e 8a3c ecad cfbd
000002e0: 4015 183e d4e9 3a3c dd11 94bc 8eb6 86bc
000002f0: b1a2 57bc 8e7b 053d 6e5d 66be 5a76 fcbc
00000300: 4512 57bd 8cef 4e3e 730b 7ebe 4b44 a33e
00000310: 4b44 cabd 53b4 d83c 15f2 b73d fede f9bc
00000320: 6900 dbbd c1e1 193e 300a f93a d224 40bd
00000330: 16f0 963d 1b00 f5bc 9a68 033d 982a 303c
00000340: 4dd9 82bc ccce 16bc 958c aabb fb2f a23e
00000350: 6b51 233e affd b13d 05ca 78bd 4eba 0e3c
00000360: 87ef d23d f416 0cbe 8935 f13b 801a c2bc
00000370: 1da4 123d 4d7e 003e 54db afba 9a0d babd
00000380: 6a69 3dbd c1ed e83d 0e8b 87be 126f a63e
00000390: 4ce9 a4bd 91ae 90bc 6f1d 083e 5391 98bd
000003a0: 33a6 eebd ce3a 893d 2a6d 63bd 9b03 adbd
000003b0: 0da1 983b b1c2 e1bc a79d 463d 58de 043c
000003c0: 0c7a 0b3c 85dc be3c ce79 c2bb 5f19 8e3e
000003d0: cf5b f03d 3d1f 683b 79f0 8cbd 5a2a 85bd
000003e0: 0f55 963c 4396 48be baab 38bd d6ec 8bbd
000003f0: 5725 433c db64 db3d aaa4 883c b66e 0ebd
0.15729153 -0.102712676 0.07879784 0.03547892 0.023113452 0.19080736 -0.17988272 0.10252413
0.1372984 0.092772685 0.31083572 0.04289722 -0.068550296 0.29136157 -0.05478079 0.011536361
-0.0076427823 0.10716003 0.20975026 0.020728225 -0.0027432886 0.091353536 0.18494122 0.06149777
0.0016042301 0.19262731 0.09227846 -0.13295855 0.07542125 0.020388637 -0.02660709 -0.026761346
0.12189494 -0.07389837 -0.0096659465 0.060886636 -0.019163148 0.18254162 -0.113597795 0.1053581
0.1294499 0.04723341 0.29593322 0.03220818 -0.02655831 0.2106098 -0.09159461 0.05029313
-0.005698547 0.05461315 0.21219733 0.007335418 0.018033458 0.01584029 0.21682781 0.09564868
-0.0024272474 0.18448864 0.022935838 -0.07426119 0.026416698 0.03670996 0.037469383 -0.03218486
0.15992504 -0.104191564 -0.01649013 0.13133168 -0.0021759013 0.090004325 -0.059906926 0.09936116
0.10701166 0.017363599 0.35942465 0.06844474 0.051460974 0.2661284 -0.17059526 0.007909499
-0.04502361 -0.048577458 0.12319551 -0.01628016 0.012602869 -0.096661836 0.45082578 0.20659274
0.07310483 0.19380835 -0.055156197 -0.054240033 -0.024494942 0.007601298 0.11666787 -0.0025415625
0.10622399 0.17626742 0.062057216 -0.064693555 0.11123621 0.105677806 0.079741485 -0.012745447
0.11775615 0.029951528 0.044213045 0.005168463 -0.018264243 0.0269287 0.34430555 0.17465523
-0.007866837 0.06586022 -0.036751345 0.009007307 -0.0068839025 0.08597178 -0.03483376 -0.09414372
-0.058431935 0.0054960246 -0.07119295 0.12643386 0.00574781 -0.0066842427 -0.09402996 0.026689855
0.116007335 0.17352062 -0.007242851 -0.03794211 0.0569122 0.19461568 0.14113772 0.033279777
0.13341363 0.082029045 0.09301102 -0.14210197 0.05388096 0.008112173 0.31927115 0.16277853
0.07061063 0.012759005 -0.0985218 0.024853004 -0.01767123 0.038747124 0.018233972 -0.094873495
-0.048567962 -0.031279717 -0.09395723 0.095660344 0.007486345 0.002313717 -0.09965217 0.0003072073
0.25813466 0.13257037 0.039718892 -0.036675688 -0.0068680258 0.21029878 0.14641887 0.007193251
0.15231377 0.05437003 0.1612192 -0.062151175 0.14261144 -0.08182217 0.34250525 -0.019498304
0.13215648 -0.14442314 -0.29410437 -0.013786469 0.05508867 0.067312114 0.01689851 -0.10140595
0.14851856 0.011408288 -0.018074924 -0.01644447 -0.013161347 0.032588534 -0.22496578 -0.030818153
-0.052507658 0.20208567 -0.24809055 0.3188804 -0.09876307 0.026453173 0.0898172 -0.030501839
-0.106934376 0.15027525 0.0019000228 -0.046910115 0.073700115 -0.029907277 0.032082178 0.010752343
-0.015972758 -0.009204578 -0.005204747 0.3167723 0.15949027 0.086909644 -0.060739536 0.008711411
0.102995925 -0.13680631 0.007361118 -0.023694277 0.035801042 0.1254818 -0.0013416805 -0.090846255
-0.04624311 0.11373473 -0.26473278 0.32506615 -0.0805231 -0.017661365 0.13292478 -0.074495934
-0.11652794 0.06700669 -0.05552403 -0.08447953 0.0046578706 -0.027558656 0.048490193 0.0081096515
0.008512985 0.023298511 -0.0059349304 0.27753732 0.11736261 0.003541901 -0.06881804 -0.065022185
0.018351106 -0.1958857 -0.045085646 -0.06832282 0.011910758 0.10712596 0.01668008 -0.03477355

model/conv2d_5/Conv2D f4 [32, 3, 3, 32]
00000000: 279d 1cbc f630 1c3c 5fcb 15bd f97e 8abc
00000010: b824 303d 9208 923c a5b2 4abc 9b7d 613d
00000020: 27d0 c4ba 2293 38bd 68ac cc3c ee52 58bd
00000030: 9490 c83b cb6e 5abc 3911 a73b 1706 b1bc
00000040: b006 e93c b993 0c3d 5a43 babb f5a2 1bbc
00000050: 0ff9 fdbc 9a70 2f3d 713c f9bc a981 ea3b
00000060: 7054 233c e2f6 c23b cbb9 93bd 15e2 153d
00000070: 3358 97bb 60ba 8c3c e5a4 8ebb 7ff9 e43b
00000080: 3cec 3fba 1aac 91bb 9a65 ffbc 0b5c 11bc
00000090: 82e5 113d 80be 8a3c 34d4 3b3a c8d0 0b3d
000000a0: 07fb 34bb 70fa 1fbd 1c2f 813c 6945 a7bc
000000b0: 205c 13bc 7d73 a9bc 66ea 983b feb6 f0bc
000000c0: ae07 a53b 973c 583c f0d8 07bc 078a 02bc
000000d0: 9b34 c4bc 9b14 c53c c58c 15bc 94b1 83ba
000000e0: 9dd0 5b3b ec48 053c 148c 58bd 7c55 9c3c
000000f0: a5fd f0b9 1c24 193c 6964 aabb 74cf 263c
00000100: 1e87 82bc f3b2 bfbb fce4 01bd 5b90 75bc
00000110: 8b91 fa3c b034 9d3c de8a b43b 79b1 223d
00000120: f6d7 8b3c 6bd9 23bd 0253 4e3c b204 cbbc
00000130: 724b 0fbd 82f7 acbc 95cb dd3b dfaa 25bd
00000140: feb5 2939 2e7a 8c3b f051 7bbc f5d5 fcba
00000150: 247b 00bd 5685 9c3c 3dae 81bc 3442 de3b
00000160: 8d22 40bc dd4e 823c 52a3 4fbd 16ab a2bc
00000170: 9b91 e8bc ed6c 4d3c ddc4 97bb 4a23 5b3b
00000180: df99 803c 9fe6 9ebc 582c d3bb 12d7 1f3c
00000190: 799a 1b3d b4a9 e03c 9a85 c4bc f9de b9bb
000001a0: 9205 47bc 3e95 48bc b6b9 6fbc c712 9dbd
000001b0: b6d7 e0ba 71d9 11bd 0a09 c03c b017 143d
000001c0: 9d13 43bd edb4 8bbc 9224 243c 873f 553c
000001d0: 55aa 6b3b 3a7d 54bb 31c5 ddbc f09b 963d
000001e0: aeda c03b 9627 213d 2fff 05bd 3858 6b3c
000001f0: cac4 4e3c 16d5 4a3c 0209 87bc 98c7 bc3b
00000200: 126a 843c 71cf 91bc 80d7 413b 4c26 133c
00000210: ac21 0c3d 0b74 bb3c a5ea abbc 311e ff3b
00000220: 2451 dbbb 182c 8ebc a14a 21bc 03a2 5cbd
00000230: 5282 4abd 66ea 34bc cb3e ac3c a8fe 1c3d
00000240: d45f febc 56d7 13bc fa2d d0b9 fd50 0d3c
00000250: a7ee f23c fdb0 093b ebc4 b7bb c898 233d
00000260: 7033 443c 5381 003d 461a 9ebc f935 eb3b
00000270: 892b 053c 7dc8 80bb 75e5 fd3a 44b0 823c
00000280: 7249 a63c 1e93 f6bc 6fdb abbb e04c cd3b
00000290: 0abe 163d c95d 233c 5a19 3cbd 3c60 38bb
000002a0: bb8a 863b f29b c2bc befe 84bc 3175 6fbd
000002b0: c8db abbd 4d46 d8bc 944c 3e3c 381b 1c3d
000002c0: 7777 97bc 90b3 d3ba b568 403c 76be 03bc
000002d0: 6287 363d fd4d d03a dd58 29bc 36fe 2c3d
000002e0: 847a 8d3b 0116 c23c 99b7 52bc 6780 d3bc
000002f0: 8808 573c 4bdd 16bc aae1 d03c 755a 343c
00000300: 64d0 fcb9 ddb8 48bc db1a 513b 50ab 7cbb
00000310: 8b88 2abc 630b 7a3c ccca 03bd f508 a03c
00000320: 2043 8e3c 7dfd 6bbc abec eabc 13ba 453c
00000330: 1ebd 453c 9ad5 c33c 7178 693c 254d f33c
00000340: e6c3 44ba 035d efbc 496d 0bbd a85f 9f3b
00000350: d2a8 beba f565 c4bb 1ebc 3239 2e31 04bd
00000360: da40 76bc f463 97bc 0698 66bc 1b72 a23c
00000370: bbf9 54bc 040f 25bc 792f f1bc 2d1c 7f3a
00000380: 2bcc 82bc de85 8fbc b5c1 86bb f6d4 793b
00000390: 85f9 213b 4354 903c 65ca edbc 012b 4c3c
000003a0: 1e4e 7c3c 6938 093b c6d8 c3bc 4557 903c
000003b0: 7b09 ff3b 3869 d73c a27c 313c ef5d cc3c
000003c0: 15ca 0e3c 9c4e b9bc 8f16 e0bc cb99 e6bc
000003d0: d53a 0fbc 6bde 2ebc 3814 29bb 83f5 a2bc
000003e0: 3ee2 66bc 8513 f4bb b342 1bbc 7714 363c
000003f0: 38dc 9ebc db90 9abb f5df b7bc d529 9bbc
-0.009558952 0.009533158 -0.036570903 -0.016906248 0.043003768 0.017826352 -0.012371694 0.055051427
-0.0015015648 -0.04506219 0.024984553 -0.052813463 0.0061207507 -0.013332079 0.0050984886 -0.02160935
0.028445572 0.034320567 -0.0056842985 -0.009499301 -0.03100255 0.042831995 -0.030424329 0.00715657
0.009968862 0.005949841 -0.072131716 0.03659256 -0.0046186685 0.017178714 -0.004353153 0.00698775
-0.00073212734 -0.004445565 -0.031176377 -0.008872042 0.035619266 0.01693654 0.00071651046 0.034134656
-0.0027615444 -0.039057195 0.015769534 -0.02041884 -0.008994132 -0.020684952 0.0046666143 -0.029384132
0.005036316 0.0131980395 -0.008291468 -0.007967479 -0.023950865 0.024057677 -0.0091278 -0.0010047429
0.0033541091 0.008135062 -0.052867964 0.01908373 -0.00045965347 0.009346988 -0.005199958 0.010181297
-0.01593357 -0.00585019 -0.031712517 -0.01498803 0.030586978 0.019190162 0.0055097183 0.039720032
0.017070752 -0.040002268 0.012593033 -0.024782512 -0.03498406 -0.021114115 0.0067686536 -0.04044616
0.00016184893 0.004287026 -0.01533936 -0.0019289838 -0.031367436 0.019106548 -0.015830154 0.0067827944
-0.011726988 0.015906746 -0.050692864 -0.01985697 -0.028389743 0.012538177 -0.004631622 0.0033437782
0.015698371 -0.019397078 -0.006444495 0.009755867 0.037989113 0.02742467 -0.023989487 -0.0056723324
-0.012147324 -0.012242613 -0.014631679 -0.07669597 -0.0017154131 -0.03560776 0.02344181 0.036155403
-0.047626127 -0.017054046 0.010018485 0.013015634 0.003595968 -0.0032423274 -0.027071567 0.073539615
0.0058854437 0.039344393 -0.032714065 0.014364295 0.01262016 0.012379905 -0.016483787 0.005761098
0.01616386 -0.017799111 0.002957791 0.008981299 0.0342118 0.022882482 -0.02098591 0.0077855815
-0.0066930223 -0.01735501 -0.009844453 -0.053865444 -0.04944069 -0.011042213 0.021026036 0.038328797
-0.031051554 -0.009023508 -0.00039707107 0.008625266 0.029654814 0.0021010034 -0.0056081912 0.039940625
0.011975154 0.031373333 -0.019299638 0.007178065 0.008128055 -0.00393015 0.0019370752 0.01595319
0.020298693 -0.030099448 -0.0052446644 0.0062652677 0.03680233 0.009971091 -0.045922615 -0.0028133532
0.0041058934 -0.023756001 -0.016234752 -0.05846137 -0.08391529 -0.02640071 0.011614937 0.038111895
-0.018489582 -0.0016151536 0.011743714 -0.008041015 0.044562705 0.0015892383 -0.010336128 0.042234622
0.0043175835 0.023692133 -0.012861156 -0.025818063 0.013124593 -0.009208034 0.02549823 0.011007895
-0.0004822045 -0.012251106 0.0031906876 -0.0038554259 -0.010408531 0.015261504 -0.032175824 0.019535521
0.017365992 -0.014403698 -0.028677305 0.012068289 0.012069015 0.023905564 0.014249907 0.029699871
-0.0007505998 -0.029219156 -0.03403977 0.004863698 -0.0014546162 -0.0059935995 0.00017045482 -0.032273464
-0.01503011 -0.018480279 -0.014074331 0.0198298 -0.0129989935 -0.010074381 -0.029441582 0.00097316765
-0.015966495 -0.017519888 -0.004112447 0.003812132 0.0024715376 0.017618304 -0.029027173 0.012461425
0.015399484 0.0020938164 -0.023907077 0.017619738 0.0077831126 0.02629529 0.010832937 0.024947135
0.008715172 -0.022620492 -0.027354507 -0.028149506 -0.008742054 -0.010673146 -0.0025799405 -0.01989246
-0.014092026 -0.007448616 -0.009476352 0.011113278 -0.019392118 -0.004716975 -0.022445658 -0.018940846
