model_final.tflite (tflite, 21728 bytes, 10 tensors)

sequential_2/dense/BiasAdd/ReadVariableOp f4 [4]
00000000: 86ac b7bf cc0a 783d 0d2c f83e b924 0b3e
-1.4349525 0.06055717 0.48471108 0.13588227

sequential_2/batch_normalization_1/batchnorm/mul f4 [32]
00000000: 338c 6e3f e3ce 583f 22ae 403f cec4 263f
00000010: fa94 6840 3a83 8b3e 3b01 d23e 496c 6a40
00000020: d15c 153f 0113 123f ae91 3c3f 737a 4e40
00000030: f018 023f fab9 7d40 b140 173f 5bb5 2c3f
00000040: ec62 393f fecc e33e 26f4 1c40 1b4b 1a3f
00000050: 2988 383f 64a7 b63f bf14 5d3e aded 1a3f
00000060: 9045 3e3f d842 6240 533f 363f 2a3f d43e
00000070: c2a8 e73e ff1c bf3e a124 433f 8024 093f
0.9318268 0.84690684 0.75265706 0.6514405 3.6340928 0.27248555 0.41016564 3.6628592
0.5834475 0.5706025 0.7365979 3.2262237 0.508193 3.964476 0.59083086 0.67464226
0.7241657 0.44492334 2.4524016 0.6027085 0.72082764 1.4269834 0.21589945 0.60518914
0.74324894 3.5353298 0.71190375 0.4145444 0.4524594 0.3732681 0.76227766 0.5357132

sequential_2/batch_normalization_1/batchnorm/sub f4 [32]
00000000: 64ce e6bf ea3e 00bf b6d0 91bf 7c2a 57be
00000010: 0ecc 203f 8439 8cbe d8b8 29bd 5c56 d63d
00000020: c069 e13e 2d5c c7bf 466f 87bf f0c7 1d3d
00000030: 4cdb 5a3e 0ea8 683e 3d4d b9bf 433b 82bf
00000040: 00b3 65bc e5c3 c6be b7d8 52bf 4929 a9bf
00000050: cefc cabf 0852 853f 862f 20bf f496 93bf
00000060: f6c6 f4bf a018 b8bd ca75 e9bf 14e4 5cbe
00000070: 0433 4cbf 4a20 33bf b6cd 9dbf 60e7 723d
-1.8031735 -0.50096 -1.1391819 -0.210123 0.6281136 -0.2738763 -0.041436046 0.104656905
0.44025993 -1.5575005 -1.0580833 0.038520753 0.21372718 0.22720358 -1.4476696 -1.0174335
-0.014019728 -0.3882133 -0.8236193 -1.3215724 -1.58584 1.0415659 -0.62572515 -1.1530442
-1.9123218 -0.08989072 -1.8239071 -0.2157138 -0.79765344 -0.69971144 -1.2328403 0.059302688

sequential_2/batch_normalization_2/batchnorm/mul f4 [14]
00000000: d4ec 3d3d 819b 67c0 f4f9 8bbf 07fa 493d
00000010: aa55 393d 40a6 673b 8802 91bf 4db6 2040
00000020: b1ea 443d 1df2 2bc0 91f5 e83e f5e6 cbbf
00000030: b4dc 35bf ef0c acc0
0.046368435 -3.6188662 -1.0935655 0.04931071 0.04524771 0.0035346895 -1.1328897 2.5111268
0.04807538 -2.6866524 0.45499852 -1.5929857 -0.7103989 -5.376579

sequential_2/batch_normalization_2/batchnorm/sub f4 [14]
00000000: 488b 8dbc 00b6 03bc 2c8a e03a 063e 12bd
00000010: 6c72 87bc 1523 51be 069e f33a b79a 34ba
00000020: 34a3 40bd 0625 30ba a81b 5cbb 5eaf f73b
00000030: 304e 5c3c 7274 a3bb
-0.017278329 -0.008038998 0.0017131022 -0.03570368 -0.016534053 -0.20423539 0.0018586523 -0.00068895094
-0.047030643 -0.0006719384 -0.003358582 0.007558747 0.013446376 -0.0049882466

sequential_2/conv1d_2/BiasAdd/ReadVariableOp f4 [32]
00000000: e373 17bf c417 36bf b402 8bbf c89d 5dbe
00000010: 6af2 22c0 96a3 93bf 5f25 f5bf e534 efbf
00000020: 15e4 083f b5be 823f 385b 59bf 11eb febf
00000030: 783a 59bf 7cf1 efbf d5fb f33d efe0 81bf
00000040: 632c 123e 8a4f 903f 4f35 0fc0 dc27 63bf
00000050: 414e 07bf 298b 14c0 abda 113f d48d 78bf
00000060: 70ae b5be 7dbe 01c0 4fa1 b0be bb5c 48bf
00000070: 691c 22bf 116b 27bf e350 87bf 77f6 cc3e
-0.59161204 -0.71130013 -1.08602 -0.2164222 -2.5460458 -1.1534297 -1.915203 -1.8688017
0.53473026 1.0214449 -0.84904814 -1.9915487 -0.8485484 -1.874557 0.119132675 -1.0146769
0.14274745 1.1274273 -2.2376287 -0.88732696 -0.5285378 -2.3209937 0.56974286 -0.9709141
-0.35484648 -2.0272515 -0.3449807 -0.78266495 -0.633246 -0.65397745 -1.057156 0.40031788

sequential_2/conv1d_3/BiasAdd/ReadVariableOp f4 [14]
00000000: 1f4f b1be ea00 b0bf 2564 cbbf 8b69 2abe
00000010: 9c94 dc3d c288 db40 45fe fcbf 81c0 12c0
00000020: fe75 3a3c d490 dcbf 5abf 01c0 376c 9bbf
00000030: f49a 44bf d44e f8bf
-0.34630677 -1.3750279 -1.5889937 -0.16641824 0.107705325 6.860444 -1.9765097 -2.2929995
0.011380671 -1.7231698 -2.0273042 -1.21424 -0.7679894 -1.9399056

sequential_2/conv1d_2/Conv1D f4 [32, 1, 3, 2]
00000000: acaf 4cbd 2553 95bd f936 353e 3dca 6f3e
00000010: 1084 0e40 b2cd 1d40 d037 8f3d f1b0 0fbe
00000020: 0eae d8bd 8f6c c13c 3b8b 2c40 577e 09c0
00000030: 7f8c bf3a ffe6 1a3c b6bf 533d e03c 91bd
00000040: 874c 953e f860 82c0 b576 26c0 2cfd 0a40
00000050: 1ff4 a7be 3217 b8be d5ed 393e 50d7 c23e
00000060: e669 953f 0436 60bf 26ea a5bb a3ad 82bd
00000070: 936e 503d c3a5 1cbe 9dc5 b3be 8ea4 63c0
00000080: 13bf 28be bf98 20bf 4f02 043d d3d7 ea3e
00000090: 0ac0 2bbf 735a bb3f 80c0 283f e55b 7c3f
000000a0: a66b 4c3f 4836 b63e 38fb c8bb bb7f 67bd
000000b0: 6e8a 9fbf 0ced e0bd ff58 c7bc 6f4d 79bc
000000c0: 307a 833f ee0f 57bf 7fdb c63f c6d1 dfbf
000000d0: 22a9 2c3f 6fb8 95bd 19bb d73f c1c0 0b40
000000e0: 1ccd 0d3e 4506 283e 15fa dabd a466 c2be
000000f0: 6548 07bf d828 8340 a26e 103e 6769 be3e
00000100: 3b5f a4bd 8c9a 09bd 0c44 0dbe 2535 ae3f
00000110: 7cfd a9bc 012d d4bc aa6a bfbc 09d4 7abd
00000120: b297 1b40 06d6 f3bf cfc1 9b3e 707b 52bc
00000130: ccf5 74be 5db9 cbbd 20b5 933c 01b9 323d
00000140: 59e3 393d dfa2 a2bb 93dc 4c3e 4044 a1bf
00000150: 6b82 77bf 3a1e c5be 9596 213e b973 4cbe
00000160: 324d f0bf 4e3e 13c0 986a c0bd e176 f33c
00000170: b623 8fc0 bea5 04bf f9e7 4fbe 92a3 84bc
00000180: 15a9 63be ef3f 2a3e 6aa6 22c0 afee 0240
00000190: 05bf 9dbe aa09 063f 9e9d 6bbc 6b75 ffbe
000001a0: 50c0 c9bf 9615 8a3f 151b af3f 47bf c03e
000001b0: d01a 7e3f 46d8 943f 9fb2 c73d bb79 4e3e
000001c0: 4087 dbbd aed6 473c c038 253e ff11 be3e
000001d0: 602d c1bf 3c90 08c0 bd66 17be 8802 17bf
000001e0: 1cbc 5a3e 5e2d 963c e5e0 48be e015 06bf
000001f0: 1011 efbf c7ee 1ac0 e012 d3bd 0bbe b53d
00000200: 5deb 9d3e 1e63 3cbf d6d6 bf3f 30b4 0dbf
00000210: 3991 a740 b5aa 1c3f 095e 91be 2f7e 2c3f
00000220: 026f 60be 53bc aebd 1fa7 9dc0 f903 9cbe
00000230: 670d 94bb eca0 79bb 3bf6 02bc d708 52bd
00000240: 6747 cabe 9aae 20bf 7f76 07c0 6fe2 23c0
00000250: 49fd 9ebd 9767 8abd 2cd9 ecbc ae84 4c3c
00000260: 6c2a 993c 4cb3 81bc b04f b13f 4905 383e
00000270: 31e0 0d3e 9e6d 0c3e 3e34 f03f fa9d 3940
00000280: 44f4 e03d 451f 813e 4ece 0bbe 717a 1bbf
00000290: b6c4 643e 02f6 883f 71eb edbe cc93 6040
000002a0: 2ad6 8ebd 18ae 103e b2ff c5be aa82 9f40
000002b0: 27f6 c53c 8ee5 9c3e bb3a 143d f2f5 e0be
000002c0: c2f0 563e 0996 8dc0 b0c0 353d 20bd b7be
000002d0: 190a 143e 6f3e 4abd 83a6 c33c 96a8 b33d
000002e0: fa25 9a40 f0e2 eb3e 75d8 22c0 0896 ea3f
000002f0: 1a25 693d 905e 343f cc0a 86be 170f cbbe
-0.04997222 -0.07291249 0.17696752 0.23416992 2.2268105 2.4656796 0.06993067 -0.14032342
-0.10580073 0.023611335 2.695998 -2.1483362 0.0014614015 0.009454488 0.0516965 -0.07091689
0.29159948 -4.074337 -2.6009953 2.1717024 -0.32803437 -0.35955197 0.18157132 0.38054895
1.1672943 -0.8758242 -0.005063313 -0.06380775 0.0508867 -0.15297608 -0.35111704 -3.5569186
-0.16479139 -0.6273307 0.032228764 0.45867786 -0.67089903 1.4636978 0.6591873 0.9857772
0.7985176 0.35588288 -0.0061334632 -0.056518298 -1.246412 -0.10982713 -0.024334429 -0.0152162155
1.0271664 -0.8400868 1.5535735 -1.7485893 0.67445576 -0.073105685 1.6853973 2.1836398
0.13847774 0.16408642 -0.106922306 -0.37968934 -0.5284484 4.098736 0.14104703 0.3718979
-0.08025976 -0.033594653 -0.13795489 1.3609968 -0.020750754 -0.025900366 -0.023366291 -0.06123737
2.4311337 -1.904969 0.30421302 -0.012846813 -0.23921889 -0.099474646 0.018030703 0.043633465
0.04538283 -0.0049632634 0.20006017 -1.2598953 -0.9668338 -0.38499624 0.15780099 -0.1996602
-1.8773558 -2.3006778 -0.09395331 0.029719772 -4.4731092 -0.518154 -0.20303334 -0.016191278
-0.22232468 0.16625951 -2.541407 2.045818 -0.308098 0.52358496 -0.014380841 -0.4989427
-1.5761814 1.0787838 1.368014 0.37645933 0.9925966 1.1628501 0.09750866 0.20163624
-0.10719156 0.01219718 0.1613493 0.37123105 -1.5091972 -2.1338034 -0.14785285 -0.5898824
0.2136082 0.01833218 -0.1961704 -0.5237713 -1.8677082 -2.4208238 -0.103063345 0.088741384
0.3084363 -0.7358874 1.4987438 -0.5535307 5.2364774 0.6119798 -0.28392056 0.6738004
-0.21917346 -0.08532014 -4.9266505 -0.3047178 -0.0045181992 -0.0038090302 -0.007993276 -0.05127796
-0.395076 -0.6276642 -2.1166074 -2.5606954 -0.07763154 -0.067580394 -0.02891215 0.012482805
0.018696986 -0.015832566 1.3852444 0.17970766 0.13855053 0.1371369 1.8765943 2.9002671
0.1098409 0.2521917 -0.13652918 -0.60733706 0.22340664 1.0700076 -0.4646869 3.5090208
-0.06974442 0.14128911 -0.38671643 4.9847 0.024165226 0.30643886 0.036188822 -0.4393764
0.2099028 -4.424565 0.044373214 -0.35886478 0.14456977 -0.049375948 0.02388311 0.087723896
4.817136 0.46071577 -2.5444615 1.8327036 0.05692015 0.7045679 -0.26180112 -0.3965995

sequential_2/conv1d_3/Conv1D i1 [14, 1, 3, 32]
00000000: 5e20 fa0d a0f5 ff81 1107 208e 2199 07fc
00000010: 22fd d815 0c01 03f2 178b 0ce1 fbee fe04
00000020: 2e43 de3d c50c eaaa 19d4 cfc8 17a6 1cf7
00000030: 31ec e7df 4907 eaf3 26b3 1b1b e401 ec1b
00000040: 1e1c 0822 bde6 fb8d 0ef8 0788 1baf f0fe
00000050: 2ff8 f605 13f7 f7d5 22a7 21c6 d1ee ff1a
00000060: f1fc ebd4 9bd6 d3fd 8119 02f8 9cbb d4e2
00000070: b5ca 04e4 0995 11d1 ebfa f3d0 cdeb c9be
00000080: faff fbd7 b4ed d2f1 a0fe d6c4 baab dfe7
00000090: 91a2 19fa fe96 f5e5 f20e f8ec e20f d6ad
000000a0: e401 09f0 aefd f0c9 f5e1 fad2 ddc6 dddf
000000b0: ddd9 f8ec 04c1 eefa d2fb 12ce dc05 e7ad
000000c0: 161b f80d a4ae db26 8ce2 15b2 b59f f0fa
000000d0: e4d7 f2ad 26b5 10f6 def5 1ceb 16fb 0aef
000000e0: 1321 f8de 81d7 ffb4 990a f4ac af97 caf2
000000f0: a4c7 f6f0 26a2 1af5 020f 45ed 0500 dab2
94 32 -6 13 -96 -11 -1 -127
17 7 32 -114 33 -103 7 -4
34 -3 -40 21 12 1 3 -14
23 -117 12 -31 -5 -18 -2 4
46 67 -34 61 -59 12 -22 -86
25 -44 -49 -56 23 -90 28 -9
49 -20 -25 -33 73 7 -22 -13
38 -77 27 27 -28 1 -20 27
30 28 8 34 -67 -26 -5 -115
14 -8 7 -120 27 -81 -16 -2
47 -8 -10 5 19 -9 -9 -43
34 -89 33 -58 -47 -18 -1 26
-15 -4 -21 -44 -101 -42 -45 -3
-127 25 2 -8 -100 -69 -44 -30
-75 -54 4 -28 9 -107 17 -47
-21 -6 -13 -48 -51 -21 -55 -66
-6 -1 -5 -41 -76 -19 -46 -15
-96 -2 -42 -60 -70 -85 -33 -25
-111 -94 25 -6 -2 -106 -11 -27
-14 14 -8 -20 -30 15 -42 -83
-28 1 9 -16 -82 -3 -16 -55
-11 -31 -6 -46 -35 -58 -35 -33
-35 -39 -8 -20 4 -63 -18 -6
-46 -5 18 -50 -36 5 -25 -83
22 27 -8 13 -92 -82 -37 38
-116 -30 21 -78 -75 -97 -16 -6
-28 -41 -14 -83 38 -75 16 -10
-34 -11 28 -21 22 -5 10 -17
19 33 -8 -34 -127 -41 -1 -76
-103 10 -12 -84 -81 -105 -54 -14
-92 -57 -10 -16 38 -94 26 -11
2 15 69 -19 5 0 -38 -78

sequential_2/dense/MatMul i1 [4, 2772] scale=0.010121945 zero_point=0
00000000: 13fe f8db c989 050a ed17 02db 17ef 0306
00000010: f6f7 13b3 fd14 0efb 11fb ee22 21fe 0205
00000020: e2ba 0cfa 27f4 edf8 e6ff 0e01 0705 08ab
00000030: 29de e5ed 0e01 29ed d501 f505 f6c5 f219
00000040: 2001 ff05 0c03 e0ec eff5 c1a0 fdec f010
00000050: 0904 030b f1e1 0a04 03bc e11a fd06 0fd4
00000060: f0ef f511 07e8 019c 02f7 0308 f509 f523
00000070: 1cf9 0e1b df9b f723 fc1c faf6 2217 0bf7
00000080: f6f0 f2ca 0e0c 0def f724 0afc 14e7 e5e9
00000090: 08ad 03e5 ebee 0bc3 fd00 1bfb 0829 edba
000000a0: 1cfb 16fe fae2 efe8 ec08 0dff db9a ff0a
000000b0: fb03 0a1b 0b1d f318 1310 01d1 dbfc ffff
000000c0: f61d 20fc e820 f7ca e9a6 db14 00e7 fd15
000000d0: f7f4 06ea fffc bedd fee9 effe 08b0 e1e7
000000e0: f5e6 0819 0dba 0ffb eff3 f9f3 edff e0f4
000000f0: f1f5 f4c2 12f7 fb05 0eff f9f3 0ee0 07fe
0.19231696 -0.02024389 -0.08097556 -0.374512 -0.55670696 -1.2045115 0.050609726 0.10121945
-0.19231696 0.23280475 0.02024389 -0.374512 0.23280475 -0.17207307 0.030365836 0.06073167
-0.10121945 -0.091097504 0.19231696 -0.7793898 -0.030365836 0.2024389 0.14170724 -0.050609726
0.17207307 -0.050609726 -0.18219501 0.34414613 0.3340242 -0.02024389 0.02024389 0.050609726
-0.30365837 -0.70853615 0.12146334 -0.06073167 0.39475587 -0.12146334 -0.19231696 -0.08097556
-0.26317057 -0.010121945 0.14170724 0.010121945 0.07085362 0.050609726 0.08097556 -0.86036533
0.41499975 -0.34414613 -0.2732925 -0.19231696 0.14170724 0.010121945 0.41499975 -0.19231696
-0.43524364 0.010121945 -0.1113414 0.050609726 -0.10121945 -0.5971948 -0.14170724 0.25304863
0.32390225 0.010121945 -0.010121945 0.050609726 0.12146334 0.030365836 -0.32390225 -0.2024389
-0.17207307 -0.1113414 -0.63768256 -0.97170675 -0.030365836 -0.2024389 -0.16195112 0.16195112
0.091097504 0.04048778 0.030365836 0.1113414 -0.15182918 -0.3137803 0.10121945 0.04048778
0.030365836 -0.68829226 -0.3137803 0.26317057 -0.030365836 0.06073167 0.15182918 -0.4453656
-0.16195112 -0.17207307 -0.1113414 0.17207307 0.07085362 -0.24292669 0.010121945 -1.0121945
0.02024389 -0.091097504 0.030365836 0.08097556 -0.1113414 0.091097504 -0.1113414 0.35426807
0.28341448 -0.07085362 0.14170724 0.2732925 -0.3340242 -1.0223165 -0.091097504 0.35426807
-0.04048778 0.28341448 -0.06073167 -0.10121945 0.34414613 0.23280475 0.1113414 -0.091097504
-0.10121945 -0.16195112 -0.14170724 -0.546585 0.14170724 0.12146334 0.13158529 -0.17207307
-0.091097504 0.36439002 0.10121945 -0.04048778 0.2024389 -0.25304863 -0.2732925 -0.23280475
0.08097556 -0.84012145 0.030365836 -0.2732925 -0.21256085 -0.18219501 0.1113414 -0.6174387
-0.030365836 0.0 0.2732925 -0.050609726 0.08097556 0.41499975 -0.19231696 -0.70853615
0.28341448 -0.050609726 0.2226828 -0.02024389 -0.06073167 -0.30365837 -0.17207307 -0.24292669
-0.2024389 0.08097556 0.13158529 -0.010121945 -0.374512 -1.0324384 -0.010121945 0.10121945
-0.050609726 0.030365836 0.10121945 0.2732925 0.1113414 0.29353642 -0.13158529 0.24292669
0.19231696 0.16195112 0.010121945 -0.47573143 -0.374512 -0.04048778 -0.010121945 -0.010121945
-0.10121945 0.29353642 0.32390225 -0.04048778 -0.24292669 0.32390225 -0.091097504 -0.546585
-0.23280475 -0.9109751 -0.374512 0.2024389 0.0 -0.25304863 -0.030365836 0.21256085
-0.091097504 -0.12146334 0.06073167 -0.2226828 -0.010121945 -0.04048778 -0.6680484 -0.35426807
-0.02024389 -0.23280475 -0.17207307 -0.02024389 0.08097556 -0.8097556 -0.3137803 -0.25304863
-0.1113414 -0.26317057 0.08097556 0.25304863 0.13158529 -0.70853615 0.15182918 -0.050609726
-0.17207307 -0.13158529 -0.07085362 -0.13158529 -0.19231696 -0.010121945 -0.32390225 -0.12146334
-0.15182918 -0.1113414 -0.12146334 -0.6275606 0.18219501 -0.091097504 -0.050609726 0.050609726
0.14170724 -0.010121945 -0.07085362 -0.13158529 0.14170724 -0.32390225 0.07085362 -0.02024389
